models/dql.pt (torch, 551392 bytes, 6 tensors)

weight f4 [512, 8]
00000000: 3584 453e 8430 d1be 77ad 20bf 0a40 2c3e
00000010: c15f 8d3e d12f c6bd 8188 843e c7ca c63e
00000020: 942d 083e ab35 8dbf 3504 293e 223e 07be
00000030: 6573 41bf 4d96 bb3b c96c eabd 82ae b0be
00000040: a85b 5b3f baba 9bbf 9cc7 103f f79c fc3c
00000050: a164 3e3e 5d2c 85be eeda 7dbe 72ed b83d
00000060: 8ae4 1cbc fea9 343e 1d91 623f 624e e93e
00000070: c569 ce3d 1566 bd3e c0f3 753a 312c 9f3e
00000080: 0c70 33bc e546 f03e 0210 c93d 00c0 a4be
00000090: 3f9a fc3d d5c4 0abf 6870 833d 4265 8fbe
000000a0: 2bed 4f3f 2ce6 a53f 3185 98be 159d 8fbe
000000b0: 4f6e a8bc e7e5 653e 5a93 eebd a93a b83e
000000c0: 3cf5 6c3d 93ac 553e 317e 26bc cad7 593e
000000d0: f1cb eabe 4785 7f3e 6cd3 a13d 404b 4e3d
000000e0: ac23 61be 3fd0 75bf 0aa3 d43c 82f7 9f3e
000000f0: f36a 143f 904b 0abe ac9e 32be efad 863d
00000100: 34a3 5abf ee9f 8a3f b8f3 a03b 851a ef3e
00000110: d56c 2ebf 7f7c 3e3c e4e9 25be 68b9 e4bc
00000120: 80ad 9bbe 535d bd3d 44ca a23e e726 c73e
00000130: 917c ee3d 0e5a b43e f206 40be 3150 003e
00000140: 62cd 1fbf f9bc 2d3f 572e f7bd 130f 1c3f
00000150: 688d 7f3b 507e 323f 07ed 7e3d dc8c c6be
00000160: 4430 5d3d 62e5 6ebc ec3a ad3e 4e56 1340
00000170: 4d68 9f3a 9de8 683d 85a5 06bf 6e25 f0be
00000180: 39a7 a43e 384b 83bf 4b71 dd3c 6251 f7be
00000190: 1cc8 013f c8ac 4b3d a107 7ebd 95fb 673d
000001a0: 03a8 33bc 5723 08bf 958d 1b3d 8653 c5be
000001b0: b94b e0be d87c 38bf 7c73 373e 1a23 75be
000001c0: 9edf 09bf 74a3 afbf 938f 12bf 5578 d4be
000001d0: c49f 22be 84a9 9f3e 4ae4 633e d1f4 e0ba
000001e0: f668 96be 1041 ae3f ae69 963f a39c e3bc
000001f0: 59bb efbe cf6e 373e 912b b7bd 83d9 fa3c
00000200: 0b1a bbbd bb76 823f b50a 8c3f e489 aabe
00000210: 5d06 1cbe b4a1 e93e 7348 e4be 4935 10be
00000220: 1885 88bd 03b3 093d 82e3 83bc 070b 833e
00000230: 6d90 9d3e bd31 ffbe 0a67 da3d 6041 f5bc
00000240: dcfc 3c3e 2dc9 403f 2cd9 6f3f 585b 263e
00000250: 0f98 483f 9c41 f43e d1d9 0ebd f800 8bbd
00000260: e89c 603a edef f03e c79c 733d d54c b6be
00000270: e27a 133e 0aa8 16bf c304 bd3d 9386 60bd
00000280: 33b9 383d 0d12 afbf 2083 c83e 94a0 ecbd
00000290: dfbb cbbe d345 c93d 0bda c0be b0aa 793d
000002a0: 2e14 8c3e 7bf1 b1ba 21ce 6c3d 5f04 19bf
000002b0: de6c d13c e42b bc3e e44b afbe 0c7f f53e
000002c0: 149b 72be 7daa a7bf ae7b f8be cfb4 dabe
000002d0: 0b1f 933e 047c 2bbe 6847 133e de27 d53c
000002e0: d336 383f 9378 8bbf b695 79bd 6dc1 c8be
000002f0: 5a15 7b3e 43f1 553e 4faf d3bd 885d 4e3c
00000300: 907a 6b3e 0dbb 83bf 1b22 733e 966e a9be
00000310: fae1 07bc d762 f73e 4612 ac3e 616e 2a3d
00000320: 5dea dabd e4c0 4e3f efc6 b8be fc1f 133f
00000330: a21f 923e 0c30 0a3f 399f 803e 10d3 e4bd
00000340: da0f 073f 1271 203f dbf4 71bf 9d2a 193e
00000350: ac6e 13bf 61b4 d5bc fce4 3cbd 0fb6 37be
00000360: e9fb 923e df5e fabe 1c45 023f 799b 2a3c
00000370: 6cf4 fe3e e3be 153f 8b92 08be 502b 0f3e
00000380: 2c31 07be ff47 94bf 17f3 63bf 55bb 0bbd
00000390: 182f d2be 80b0 d3bd ada7 183d ed4e 7cbd
000003a0: 2eed 6c3b 5678 c7bf 46ed 1d3f c5d8 3abf
000003b0: c79e 0bbf eab4 c53c 85ef 9a3e fec2 753c
000003c0: df98 8f3d 8f6d 55be 45a0 d4bf d5ad e6be
000003d0: 6d11 0a3d fea1 b53d 803c 3a3e f60c 983e
000003e0: 0333 e03e d0db 173e c84c 44bf 9dcf dabe
000003f0: d844 3d3e 4651 dd3b fda4 0c3e 22ad 683e
0.19288714 -0.40857327 -0.62764686 0.16821304 0.27612117 -0.09677089 0.25885394 0.38826582
0.13298637 -1.1032003 0.16505511 -0.13207296 -0.75566703 0.0057247044 -0.1144653 -0.3450814
0.8568673 -1.216636 0.5655458 0.030836565 0.18593074 -0.2601041 -0.24790546 0.09029664
-0.009575972 0.17642972 0.88502675 0.45567614 0.10078768 0.36991945 0.000938233 0.31088403
-0.010952007 0.46929088 0.098175064 -0.32177734 0.123341076 -0.5420659 0.06417924 -0.2800694
0.81221265 1.2960868 -0.29789117 -0.28049532 -0.020560412 0.22450982 -0.11649199 0.35982254
0.05785106 0.20866613 -0.010161922 0.21273723 -0.4585872 0.24953185 0.07901654 0.050364733
-0.21986264 -0.96020883 0.02595665 0.3124352 0.5797569 -0.13505387 -0.17443341 0.06576144
-0.8540528 1.0830057 0.004911866 0.4669992 -0.68134815 0.011626362 -0.16202503 -0.02792044
-0.30405807 0.09246316 0.3179494 0.38896868 0.11644853 0.35224956 -0.1875265 0.1253059
-0.62422764 0.67866474 -0.120693855 0.609605 0.0038994197 0.6972399 0.062237766 -0.38779342
0.054001108 -0.014581056 0.33834016 2.3021426 0.0012161821 0.056862462 -0.5259631 -0.46903557
0.3215883 -1.025733 0.027031561 -0.48304278 0.5069597 0.049725324 -0.062018994 0.05663641
-0.01096535 -0.53178924 0.03797682 -0.38540286 -0.43807772 -0.72065496 0.17915148 -0.23939171
-0.5385684 -1.3721757 -0.57250327 -0.41498056 -0.15881258 0.31184018 0.22255054 -0.0017162805
-0.29376954 1.3613605 1.1751001 -0.027784651 -0.46822622 0.17913364 -0.089438565 0.030621296
-0.09135827 1.0192484 1.0940768 -0.33308327 -0.15236802 0.45631182 -0.44586524 -0.14082827
-0.066660106 0.033617985 -0.016099695 0.2559435 0.3077425 -0.49842635 0.106641844 -0.0299384
0.18455833 0.7530697 0.93690753 0.16245782 0.78357023 0.47706306 -0.034875695 -0.06787294
0.0008568303 0.4705805 0.059475686 -0.35605493 0.14402345 -0.5885016 0.09229424 -0.05481584
0.045098495 -1.3677384 0.3916254 -0.11554065 -0.39791772 0.09827771 -0.37666354 0.060953796
0.27359146 -0.0013575995 0.057813767 -0.59772295 0.025564607 0.36752236 -0.34237587 0.47948492
-0.2369197 -1.3098904 -0.4853186 -0.4271607 0.2873462 -0.16746527 0.14382708 0.026019987
0.71958655 -1.0896171 -0.06093379 -0.39210072 0.24519864 0.20892815 -0.10336172 0.012595542
0.22995973 -1.0291458 0.23743479 -0.33092183 -0.008293623 0.48317596 0.33607692 0.04160917
-0.106892325 0.8076308 -0.36089274 0.5747068 0.2853976 0.53979564 0.25121477 -0.111730695
0.5275856 0.6267253 -0.94514245 0.14957662 -0.57590747 -0.026086988 -0.046116814 -0.17940544
0.28707817 -0.48900506 0.508867 0.010413044 0.49795854 0.58494395 -0.13337152 0.13981366
-0.13202351 -1.1584471 -0.890428 -0.0341142 -0.41051555 -0.10336399 0.037269283 -0.061598707
0.0036152112 -1.5583599 0.61690176 -0.72987014 -0.5453915 0.024134118 0.30260864 0.015000103
0.0701158 -0.20842575 -1.661141 -0.45054498 0.033708025 0.08868788 0.18187141 0.29697388
0.4378892 0.14829946 -0.7667966 -0.4273652 0.18483293 0.0067540733 0.13734813 0.22722295

bias f4 [512]
00000000: 5cfd 373e aa14 fd3d 304a 883e 8974 c63e
00000010: d772 103f ccbb e73c c441 fd3e 7873 e63e
00000020: 89fe eb3d 0ee0 f23e 42be 693e b85e d33c
00000030: cb1f 2ebd da93 a8be ce96 64bd de2b a53d
00000040: 2213 3cbe 7b2b bdbe 3eb0 db3d 2e46 b03e
00000050: 12c2 0b3f bc26 283e 9ee3 1bbe db0f 10bf
00000060: 6e2b 21be b45e 2ebe 1733 073e fdd4 ffbd
00000070: eebb fabb b593 84bd a598 c73d a992 0e3f
00000080: 1dc5 92bd 2af0 463e cd88 f0bd 3443 febe
00000090: 5ce8 173e 3d6c cbbe ea6a 223e c984 593e
000000a0: 64ae 843d f54b aebc 89a5 2abe 2612 0fbe
000000b0: aaf9 893d c386 523c 2825 003f 2601 123d
000000c0: 95ca 023f e2bd cd3d 4bfc de3d 13d3 533e
000000d0: e724 223b 2ccd 3c3e 5e71 9abe 2039 ec3d
000000e0: a768 bf3e d9cf 163e b782 2d3e dac5 8f3e
000000f0: 9e45 0a3f 860c 15be 4c38 66be 87c6 253c
00000100: 0ceb a33e 3711 d4bc f337 ee3c 464a 7ebd
00000110: f3d2 92bd 9af5 953e aecf e6bd c024 e6bc
00000120: 5519 b2be d7ac a8bd a64b 1f3f 44c0 983e
00000130: 6d32 6abe d69e b7be 98bc ef3e 5d39 afbc
00000140: b2d0 0b3f 6837 ae3b cb70 123f f7c4 113e
00000150: 0544 213f fa1b 093f 292b d1bd afc7 25bd
00000160: f43e abbe cf01 c6bc e2bf e33e 4076 113e
00000170: 3a2e ff3e 31b7 58be 6beb 633e f360 173e
00000180: bab7 353d 089c 463d 7f24 8b3e 22f4 073f
00000190: 4b97 b03e 20c1 433e e31c 7c3e 46d5 a63e
000001a0: 1926 373e 874c 67be 94eb f33d 3f6f dd3e
000001b0: c7e0 543d 8a31 513c 32d3 d93e 705e b2bd
000001c0: 7f09 973e 5275 38be 180f d23e e93f 90bd
000001d0: a30f 4a3e 4763 c93d 9ee2 813e eda7 5c3e
000001e0: 081d 8a3e 7666 133f f3f0 963b c435 9f3e
000001f0: c12d 0abd 50ed c03e deae 003f 743e fc3e
00000200: 8be0 073f 8f6a 123f f1c1 5abd 1208 0abe
00000210: 6871 953e 3028 873e 87cf 143f de14 083f
00000220: 55c2 0c3f 1456 5d3e 8b8e f13e d8a8 98bd
00000230: 7896 d13e a784 c93c 7cfe 653e 5b80 853e
00000240: 75d6 263d 4100 113e f73f b53e 6a32 183f
00000250: 12fb 093f fc2e 0d3f 3bb9 003e 1027 10be
00000260: f2ae ca3e b7b3 56be 34e2 89be d12d 1abe
00000270: ef29 cfbe 3b14 b1bd 2e8e 983e 7b19 9b3d
00000280: ce7b 453e ddd6 493e 24b6 1a3e 53cb 2d3e
00000290: 7d6b 8dbe 27ae 39bd 25f4 673e 2e5d 0d3b
000002a0: f9d2 de3d 6008 963e af48 4ebc c8e1 01be
000002b0: 74e2 04be d97c 833e 97f4 383e f494 e93e
000002c0: f433 ac3e 60b6 503e 7d26 c63b a0ae f23e
000002d0: 2bb9 2dbd f1ef acbd c931 223e 3e5f 28be
000002e0: 6b5e 33be 6a82 58be 7db0 d93d 744f eb3e
000002f0: ec50 b8be 503a 63be 9de3 053f de7e aa3e
00000300: 1c16 44bd 2afa 043e f47e 483e ba74 023f
00000310: 26c0 493e de50 0f3f 25ec d93e 1e50 e93e
00000320: dfa2 9a3e 726c e13e 5a51 2e3e c90f 42be
00000330: 9f12 77bd 3209 ec3e 1c4b 2c3e fd88 9fbe
00000340: dc6b a7bb 821e 853e cd3a 0d3f 5a3b 083f
00000350: e75e 58be 0d30 6fbe e470 be3e b958 653e
00000360: 1b2a 11be 31e1 d13d c9c9 8a3e b1f0 223f
00000370: a885 ad3d f4b1 013f b017 99bb fff6 61be
00000380: 3c91 8f3e ffda 20bd 650b 8a3e b195 ce3e
00000390: 347f 213d 738c 193f 4b85 e43e 8352 123d
000003a0: 1271 bc3e 9da0 8f3e b879 b73e 414e e9bc
000003b0: 662a 123f b8f9 02be 5984 9fbd 0727 183f
000003c0: 6cd1 dd3d ae13 7bbe ca3e c33e 144e 4cbe
000003d0: 2e86 0f3f 6a03 893e bf27 8f3e 775c 343f
000003e0: ddaf d03c 3456 943e 3918 e13e f130 143f
000003f0: 916a 33be b1d8 0a3f fde2 cc3e 2e5b 33be
0.17967743 0.12357457 0.266191 0.38760784 0.5642523 0.02828779 0.49464238 0.4500997
0.11523158 0.47436565 0.22826484 0.025802001 -0.04251079 -0.32925302 -0.05580788 0.080650076
-0.18366674 -0.36947235 0.10726975 0.34428543 0.54593 0.16421026 -0.15223548 -0.56274194
-0.15739223 -0.17028314 0.13203083 -0.12491796 -0.0076517975 -0.064734854 0.097459115 0.55692536
-0.071665026 0.19427553 -0.11744843 -0.49660647 0.14834732 -0.39731017 0.15861097 0.2124206
0.06478575 -0.021276454 -0.16664709 -0.13971767 0.06737073 0.0128495125 0.50056696 0.035645626
0.51090366 0.10045983 0.10887965 0.20685987 0.0024741234 0.18437642 -0.30164617 0.11534333
0.3738453 0.14727725 0.16944395 0.28080636 0.5401248 -0.14555559 -0.22482413 0.010118133
0.32015264 -0.025887115 0.029079413 -0.06208255 -0.071691416 0.29288942 -0.112700805 -0.028093696
-0.34784952 -0.082360916 0.62224805 0.29834187 -0.22870798 -0.3586337 0.46823573 -0.021389658
0.5461532 0.0053166635 0.5720336 0.14235292 0.62994415 0.53558314 -0.1021331 -0.040473636
-0.33446467 -0.024170784 0.44482332 0.14205265 0.49839956 -0.21163632 0.22257774 0.14783077
0.04436467 0.048488647 0.27176282 0.5310689 0.34490427 0.1911664 0.24620394 0.3258459
0.17885627 -0.22587787 0.11910167 0.43248937 0.051972177 0.012768159 0.42543942 -0.08709419
0.29499432 -0.18013504 0.4102714 -0.0704344 0.19732527 0.09833389 0.25368208 0.21548434
0.26975274 0.5757822 0.00460636 0.31095707 -0.03373504 0.37681055 0.50266826 0.49266398
0.53077 0.57193846 -0.053407613 -0.13479641 0.29188085 0.26397848 0.5812916 0.5315684
0.5498403 0.21614867 0.47179064 -0.074540794 0.4093511 0.024599386 0.2246036 0.2607449
0.040731866 0.14160253 0.35400364 0.59451926 0.5389873 0.5514982 0.1257066 -0.14077401
0.39586598 -0.20966993 -0.26930392 -0.1505654 -0.4046168 -0.08646437 0.29795974 0.075732194
0.19285509 0.1971087 0.15108544 0.16972093 -0.2762107 -0.0453321 0.22651727 0.0021570432
0.108800836 0.29303265 -0.012590571 -0.12683785 -0.1297701 0.2568119 0.18062054 0.45621455
0.33633387 0.2038207 0.0060470686 0.47398853 -0.042412918 -0.08444203 0.15839304 -0.16442582
-0.17516486 -0.21143499 0.106293656 0.45959055 -0.35999238 -0.22190213 0.52300435 0.33299917
-0.047872648 0.12986055 0.19579679 0.5095936 0.19702205 0.5598277 0.42562976 0.45568937
0.30202386 0.4402805 0.1702322 -0.18951334 -0.060320493 0.46100765 0.16825527 -0.311592
-0.0051092934 0.25999838 0.5516785 0.53215563 -0.21129952 -0.23358174 0.37195504 0.22397126
-0.14176218 0.1024803 0.27107075 0.63648516 0.084727585 0.5066216 -0.004672013 -0.22066878
0.28040493 -0.03927135 0.26961818 0.4034858 0.03942795 0.59979934 0.44632944 0.03572322
0.36805016 0.28052226 0.35835052 -0.028479697 0.57095945 -0.12790573 -0.07788915 0.5943455
0.1083096 -0.24519226 0.38133842 -0.1995166 0.56064117 0.26760417 0.2796001 0.7045359
0.025474483 0.28972018 0.43963793 0.5788718 -0.1752112 0.54236895 0.40016928 -0.17515251

weight f4 [256, 512]
00000000: 09df bdbd 05b3 cfbe 476f d7bd c1df 43bd
00000010: b1d3 cbbd 42c1 07bf 13e2 b2bd 3d0e c13d
00000020: 9a11 fd3e bc03 23bd 76b6 1e3e 6698 05bd
00000030: bbea b13e 1f29 ca3d 4758 eb3e 44dd 9d3d
00000040: 298f 59bf 15da 04bf b27d 353e 450b 08be
00000050: 06f1 23bc 1379 e53d a00c 933e dd66 66bf
00000060: 9722 8f3d ed34 5ebe 87f5 adbd e473 703e
00000070: 977d c23e e6fe 933e c8c5 22be f4b3 a7bd
00000080: 665f f43e 8b1f 983d bdb6 1c3d 23a0 d2be
00000090: 475a b0bc 8c60 2abf 6cf3 d7bc cb9e 57bc
000000a0: 8366 a63e 05d3 ce3e e73e a6be c08f ed3e
000000b0: a2a3 1b3e 22a0 0e3e 52dd fb3c 44ff 7c3c
000000c0: e326 0e3d da1b c23e 3336 d3bc f6bc 9c3d
000000d0: 7ebd bc3d 5418 e53d 167b 65bf aeb5 fb3d
000000e0: e8d4 fa3c 5d9f 643e 3675 e43d 9998 203e
000000f0: 4bda 09be 8afd 493c 8cb5 b03d a806 c5bd
00000100: 82a2 37bc 7cad c33e b1bc 503d 331a 043e
00000110: 2599 d2bd a42a 29be e3b4 84bc 774e 093f
00000120: b7d2 9dbe ccd4 163e 10e8 de3c 6431 363e
00000130: 6e39 41bf 5c5b 31bf 666a aabd 8844 ea3d
00000140: 0871 92bd ad6d 01be ffa9 2dbc 9d9b 9cbc
00000150: 320f 36be 3b91 47bd 959b 303e b291 6dbc
00000160: 6601 1bbd b7d3 563e 1652 73bd 8833 243e
00000170: d65f e1bc 790a 913e ab0b 95be 20d7 433e
00000180: b2de 033d af2c 8abd da32 69bb c691 bbbd
00000190: a1cb f53c a64c f33d e911 87bc f5c7 aebb
000001a0: 201d 0c3e 9c19 e6be 1fe9 153e 4ae7 6ebd
000001b0: 832f 08b8 df6a 54bf a72c c2bd 4aef 5c3e
000001c0: d398 d83c 73ad 543e 5deb 653d 086a dd3e
000001d0: 09b2 c7b9 635d f83d 668b 013e cec5 7f3c
000001e0: 9a68 003d b5f5 41be e770 4c3c 497e 96be
000001f0: 7a7c f93e 4f0d d03d 72af 033d dc68 3cbd
00000200: 14c0 27bd b208 5d3d bd34 983e 4f1c 003e
00000210: 0e0f 573e e4f0 ce3d 6bf3 27bd b22e c3bd
00000220: 676b f3bb 2e1c 8f3e c680 1dbc 30c3 6f3e
00000230: ae11 01bd a5e8 d63d 7794 a93d 0fa5 113e
00000240: 3466 74bd 5060 cb3d 4972 e43b 1cd1 f3bc
00000250: 84b8 9cbc df5c 85bd 2767 5e3e 42b7 163e
00000260: f452 873c c944 0abf 2495 553e 3b6c 323e
00000270: a004 3fbf 7a28 8fbc 50a7 2f3e ffd2 6a3e
00000280: 9a94 0e3e 9672 193d 7e67 c53d 8ef1 0d3e
00000290: 89d8 8a3e a49a c83d 65d4 3a3e ab93 363f
000002a0: 224f 6fbe aecf abbd db92 3c3e e0a9 fbbd
000002b0: b9c2 e3bc 6d1f 263e 8883 233e b09d 31bd
000002c0: be94 7b3d 7d76 86be f270 bf3e 5fbe 3bbc
000002d0: 5875 a43e 3a96 293e 64e4 e03c 6970 fcbc
000002e0: ad08 e23d e114 3c3f f9c9 1f3e 13f1 793d
000002f0: c515 8c3e 41e8 0b3e 7b8d 79be 9936 a1bd
00000300: c81e b03e 39a3 5dbd a81f 70bd 5cf0 f93d
00000310: e21c 943d 77bd 81bb fe08 b8bd a4c2 21bd
00000320: b23e 0b3d 4b52 883d 2031 0cbc ee51 c83d
00000330: a3ae 043e e0cb 15be f4d8 10bf c30d 90be
00000340: a23c 303e dc92 6cbd bd0d b9bc b965 b3bc
00000350: ef9a e23e f166 073e f0ff e33d ffa3 56bd
00000360: 1e5d 613e f4ea 5f3c 36f9 c03b 27d3 293e
00000370: 8433 053e 327b ff3c f1f4 a33c d4e7 88be
00000380: e323 aebd d76b d63e a1d0 853c 1d04 29bc
00000390: 2a3e 4abe 06ba 983b c664 56bd 03ab 31bf
000003a0: 95bc 03bd 040b e13d 7290 2cbe 94f1 763d
000003b0: 8828 29bc d8f4 e0bd b1e0 0f3e 3dd8 17bd
000003c0: 7738 753e 0989 b5bd d8c4 23bd ba69 a8be
000003d0: 7c50 5bbc a025 f3be 1867 39be 6eea 88bd
000003e0: 60ea 063e fcbe 893c e443 5abc 8f15 f23d
000003f0: e9dd adbd c405 b6bd 7e8e 103d 918a bbbd
-0.09271056 -0.4056627 -0.10519271 -0.04782081 -0.09952486 -0.53029263 -0.087345265 0.09426544
0.4942749 -0.039798483 0.15499291 -0.03261604 0.34749398 0.098711245 0.45965788 0.07708219
-0.8498407 -0.51895267 0.1772373 -0.13285549 -0.010006195 0.11204734 0.2872057 -0.90000707
0.06989019 -0.21699877 -0.08494096 0.23481709 0.37986442 0.2890541 -0.1589576 -0.0818862
0.47729033 0.07427891 0.03826021 -0.411378 -0.021527423 -0.6655357 -0.02636119 -0.013160418
0.32500085 0.4039537 -0.32469866 0.46398735 0.1519914 0.13928273 0.030745182 0.015441719
0.034705054 0.37911874 -0.02578268 0.07653229 0.0921583 0.11186281 -0.8964094 0.12290512
0.0306191 0.22326417 0.11155169 0.15683211 -0.13462178 0.012328515 0.08628377 -0.0962041
-0.0112081785 0.38218296 0.0509612 0.12900619 -0.10283116 -0.16520172 -0.016199535 0.5363535
-0.30824825 0.14729613 0.027210265 0.17792279 -0.75478256 -0.6928003 -0.08321075 0.114388525
-0.07150465 -0.12639494 -0.010599612 -0.019117171 -0.17779234 -0.048722487 0.1724685 -0.0145000685
-0.03784313 0.209792 -0.059404455 0.16035283 -0.027511518 0.28328303 -0.29110464 0.19125032
0.0321948 -0.06746804 -0.0035583288 -0.091586635 0.030004324 0.11879854 -0.016488032 -0.0053338953
0.13682985 -0.44941413 0.1463971 -0.058326043 -3.2469175e-05 -0.8297557 -0.09481173 0.21575657
0.02644006 0.2076929 0.056132663 0.43244958 -0.00038088884 0.12127187 0.12650833 0.015611125
0.031349756 -0.18941386 0.01247809 -0.29393223 0.4872778 0.101587884 0.03214974 -0.04599844
-0.040954664 0.05396337 0.29727736 0.12510799 0.21001837 0.1010454 -0.041003626 -0.09530391
-0.007428575 0.27951187 -0.0096132215 0.23414302 -0.031511 0.10493592 0.082802705 0.14223121
-0.05966778 0.099304795 0.0069716317 -0.029762797 -0.019130953 -0.065118544 0.21719037 0.14718345
0.016519047 -0.5401121 0.20857674 0.17424099 -0.7461643 -0.017475355 0.17153668 0.22932051
0.13923874 0.037462793 0.0963888 0.13861677 0.27118328 0.0979512 0.18245085 0.71319073
-0.2337003 -0.08389221 0.18415396 -0.122882605 -0.027802812 0.16222925 0.15968144 -0.043363273
0.06142115 -0.26262274 0.37390858 -0.011458962 0.32120776 0.16561213 0.027452655 -0.03081532
0.11036811 0.7346936 0.1560439 0.061020922 0.2736036 0.13662817 -0.24370377 -0.07871742
0.34398484 -0.05411074 -0.05862394 0.12204048 0.072320715 -0.0039593535 -0.0898609 -0.039492264
0.033995338 0.06656321 -0.008556634 0.09781252 0.12957244 -0.14628553 -0.56581044 -0.281355
0.1721063 -0.057757244 -0.022589559 -0.021899091 0.4425883 0.13222863 0.111328006 -0.052402493
0.22008178 0.013666857 0.0058890833 0.16584454 0.13007933 0.031186674 0.020014258 -0.2673937
-0.085029386 0.4187915 0.016334834 -0.010315922 -0.19750276 0.0046608476 -0.0523422 -0.6940157
-0.032162268 0.10988429 -0.16851977 0.06028898 -0.010324605 -0.109842 0.14050557 -0.037071455
0.23947321 -0.08864028 -0.039982647 -0.32893163 -0.013385888 -0.47489643 -0.18105733 -0.06685339
0.13175344 0.016814701 -0.01332185 0.11820518 -0.08489592 -0.088878185 0.03529214 -0.09157289

bias f4 [256]
00000000: 2a3b dfbb 7885 8fbb bca5 8c3c b7ee 003d
00000010: 6abe 79bb 967c b7bb 42e0 813c 431f 023d
00000020: 6d2d d0bb 0ef9 07bc 097f d13c 9f40 913c
00000030: 3385 2bbd a285 2abd 5c52 0e3d f16a 4f3d
00000040: 27b8 ffbd d662 c93d a230 343c 3b61 1b3e
00000050: bbab 353e c7d3 8dbb e58c 983d 1856 06bd
00000060: 0ea9 cfbc 984c ae3d dc90 90bc b103 143d
00000070: 8201 3a3d 19ec 40bd 9407 6a3d 030a 393d
00000080: a3b5 0abe aa14 0fbd 4bb5 05bd 1593 02bc
00000090: 897b 373c ab13 8f3c 0473 a3bb 23c0 6a3c
000000a0: e794 f6bc a0ca 733c 13bd aabd f192 d13c
000000b0: 449d f2bc 8f92 b23c 3658 963e aab5 843c
000000c0: c088 b53c d098 83bc bde9 0d3c 9d6f 8d3d
000000d0: 6988 523c 3c52 eb3c 95f3 073d 7b00 223d
000000e0: 59f5 103e 3b8c b43c 274f 073c 416c 79bd
000000f0: 41a9 42be a9d1 ea3c ce20 783c 22dd b13d
00000100: 7d84 cab9 0774 8835 1791 1cbc 9c43 773d
00000110: dec4 823c dd66 93bc 9a0c 723c e30c 2f3c
00000120: 2066 c1bc 8815 0d3d 4a65 81bd 5ac9 253e
00000130: 51bb f5bc 0b82 013d 0019 1c3d c28b 2c3d
00000140: f6e6 953d 2733 563d 0e91 143d 8d37 0f3d
00000150: 18a5 793c cafd 243c 9164 ef3c 2939 dbbc
00000160: ddb3 8c3d 9ef0 373d a99d 9dbc aa4b 29bb
00000170: 1530 453c 9be6 833d 066e f73c 3fdd c23d
00000180: 01c7 0dbb 78f2 bf3d a2f2 c53c c789 11bc
00000190: fbdf 0b3d 7ae3 6d3c d2cf 183d 2308 60bd
000001a0: 9d4f d83c 2328 333b 7489 c53e 27f0 113d
000001b0: 9814 17bc 90fe 50bc 2152 28bd ff3c f6ba
000001c0: 4ce3 ca3b 6755 90bb 5f82 03bc c1ed 233e
000001d0: 3812 93bc 884b 323e 97bd 1b3d 8fba 2d3c
000001e0: 0ddf 573e 85f7 e0ba 9f51 8f3d e2ca 1b3c
000001f0: edf8 553e c92d 0d3d 9c77 113d f50f 5d3e
00000200: afc2 543b 2829 863d 83c9 4bbd 53e4 7dbc
00000210: b70a 933d eeba aa3b 6fcf 053d f801 953c
00000220: 022a 9b3c 8127 213d 0908 0dbd f027 953e
00000230: 5355 eebd def4 05bd 8543 1ebc f6bc e9bc
00000240: 6386 b7bc a538 38be 2741 afbc f927 ec3c
00000250: 0b4b 24bd e24b 24bd affc 15bd 5dce d93d
00000260: f3d2 cd3b 9036 163c 0bb0 4d3d 548b 0abd
00000270: d49d 463d 16d2 363d 1290 ffbc df7f 543d
00000280: 2ece 373c 5142 143d a5f1 973d 9a60 31bd
00000290: a549 243d 299a 543d d0ac dfbc 8939 c5ba
000002a0: 8f8f 213e 6be6 e83d c88d 8f3c af50 3a3c
000002b0: 28bf 2a3d 41de d2ba d0cd 4d3c 0ad9 323d
000002c0: 6cbb 9cbc 7507 abbd 41a6 9c3d 1f25 50bb
000002d0: 4d88 fa3c 95a7 c43c 588b 49bc 8121 ca3c
000002e0: 69c6 683d 1cf2 f5bd bacf 60bc 109e 2fbd
000002f0: 0b69 7cbc 40dd 913b dc7f a3ba f82d b03c
00000300: f450 a3bb a145 0c3c 61f9 ce3a 0290 003d
00000310: 4e80 dfbc 88fb 17bd 0d03 053d 4c11 e1bc
00000320: a32a 5cbe e530 d5bb 03d1 d23d f4c3 6fbe
00000330: f8a3 d63c 87f2 573d dc8f 883d e04c 333e
00000340: 8ff6 c53d 5844 a1b9 f67f 01bd 8bc7 343d
00000350: 713a 2c3d a58c eebc 6264 b93c 03cc 933d
00000360: 3911 2d3d b951 b2bc ee11 a73c 2191 103d
00000370: 0c88 f13c 360f be3c 2e0e 5abc 8e9d 1fbd
00000380: d575 8e3d 2090 02bd 6899 b3bc 0c31 3abb
00000390: 4283 0d3d ee1c 1ebd f6bf 0e3d b799 833e
000003a0: 4002 963e e0f8 51bd eb7a 1b3d a358 bebb
000003b0: c32d eebc 2e75 3bbd 6723 f1bb a0a4 bf3c
000003c0: 5eca a1bc 7483 3a3d 01f1 7b3c 60f8 493d
000003d0: f047 d13b 6f5e 4f3d 58e6 ec3c ef6d 0cbd
000003e0: af17 23bd b0d7 32bd 3af6 0839 13d7 2a3d
000003f0: d27e 093d e869 43bc e29b 933c fc88 54bc
-0.006812473 -0.0043799244 0.017168872 0.031477656 -0.003810788 -0.0055995686 0.015854005 0.031768095
-0.0063530714 -0.008299125 0.02557327 0.017731009 -0.041875076 -0.04163135 0.034746513 0.050639097
-0.12486296 0.098333046 0.010997923 0.15173809 0.17741291 -0.0043282243 0.074487485 -0.03279695
-0.025349166 0.08510703 -0.0176472 0.036136333 0.045411594 -0.04710016 0.057136133 0.045175564
-0.13545851 -0.034931816 -0.032643598 -0.007969637 0.011198887 0.017465433 -0.004988076 0.0143280355
-0.030100299 0.0148798525 -0.08336844 0.025582762 -0.029616006 0.0217984 0.29364175 0.016199905
0.022159934 -0.016064078 0.008661685 0.06906054 0.0128499055 0.028725736 0.033191282 0.03955124
0.14156093 0.022039523 0.0082586175 -0.060894255 -0.19009878 0.028664427 0.01514454 0.08684756
-0.00038627154 1.0166558e-06 -0.0095560765 0.06036721 0.015963014 -0.017993385 0.014773512 0.010684225
-0.023608267 0.034444362 -0.063181475 0.16190091 -0.029996546 0.03161816 0.03810978 0.04212547
0.07319443 0.052294876 0.036271147 0.034965087 0.015237115 0.010070274 0.029222758 -0.026760655
0.06870244 0.044907205 -0.019240217 -0.0025832453 0.012035389 0.06440469 0.03020383 0.095148556
-0.0021633508 0.09372419 0.024163548 -0.008882946 0.03414915 0.014519567 0.037307568 -0.05469526
0.02640515 0.0027337156 0.3858143 0.035629418 -0.0092212185 -0.012756005 -0.04109395 -0.0018786489
0.0061916467 -0.004404712 -0.008026688 0.16008665 -0.017953023 0.17411625 0.038022604 0.010603561
0.21081181 -0.001716361 0.0699799 0.00950882 0.20895739 0.034467492 0.03551446 0.21588118
0.0032464673 0.06550819 -0.049752723 -0.015496331 0.07179778 0.005210272 0.032668527 0.018189415
0.01894093 0.039344314 -0.03443149 0.29132032 -0.11637368 -0.032704227 -0.009659653 -0.028532486
-0.022402948 -0.17990358 -0.021393372 0.028827654 -0.04011063 -0.04011143 -0.03661793 0.10635064
0.0062812506 0.009168282 0.050216716 -0.03382428 0.04849036 0.044633947 -0.031196628 0.05187976
0.011218591 0.036196057 0.07419137 -0.043305017 0.040109295 0.05190483 -0.027304083 -0.0015047054
0.1577742 0.11372074 0.017523661 0.0113717755 0.041686207 -0.0016087965 0.012561277 0.043664016
-0.019132338 -0.08351032 0.07648898 -0.0031760407 0.030582571 0.02400569 -0.012301289 0.024674179
0.056829844 -0.12009069 -0.013721401 -0.04287535 -0.015405904 0.004451424 -0.0012474018 0.021506295
-0.0049840156 0.008561523 0.0015790873 0.031387337 -0.02728286 -0.037105113 0.032473613 -0.027474068
-0.2150064 -0.006506073 0.10293772 -0.23414594 0.026201233 0.052721526 0.06668064 0.17509794
0.09666168 -0.00030759233 -0.031616174 0.04413561 0.04204792 -0.029119799 0.022630874 0.072166465
0.042252753 -0.021767484 0.020394292 0.035294656 0.029483818 0.023200613 -0.013309045 -0.038968615
0.069560684 -0.03187573 -0.021923736 -0.0028410582 0.034549005 -0.03860181 0.034851037 0.25703213
0.29298592 -0.051262736 0.03795902 -0.005808906 -0.029074555 -0.045766048 -0.0073589566 0.023393929
-0.019749817 0.04553552 0.015377284 0.049309134 0.0063867494 0.05062717 0.02891843 -0.03428453
-0.03981751 -0.043662727 0.00013061697 0.041709017 0.03356821 -0.0119271055 0.018018667 -0.012972113

weight f4 [4, 256]
00000000: 1364 94be 9487 e0be 9112 b0be 9a69 d83e
00000010: ccad 96be 53db 42bd a8fc 9bbe 0064 0c3d
00000020: f87b 0dbe 1fe2 a8be 49e3 26be 6d5f b93e
00000030: f336 acbc 7c65 74be 6c36 40be f77d 493f
00000040: eec6 ddbd beaf 983d 227f 683d db53 843d
00000050: 0a92 f23e cedb abbe 2de2 debe 9d10 6ebe
00000060: 5ecd a3be 8f29 2e3c f773 9cbe 4254 443c
00000070: 32e6 9c3e 0e50 c4be 98e1 bc3d eb9a b1bd
00000080: 5b8c 0d3e a8f2 083c d96f a8be 4f35 6bbe
00000090: 5c8c 61be c7e9 8fbe 8fae 8dbe d8d1 3dbb
000000a0: e86b ad3c f416 82be 5721 85be 08b3 91be
000000b0: 7d4d e33c a2a5 97be 6a2d 243f 7f3f 8abe
000000c0: d681 bb3c 50bd b2bb bc29 d5be 15f9 88be
000000d0: c19e 94be 9ec6 75be d214 8ebe 234a 95be
000000e0: d4e7 143f 4ad6 9dbe a4dc 93be 1189 193f
000000f0: 9823 2a3e 562c abbe 4e3b d1bc 44a8 babe
00000100: 490a 95be 5ace 88be ac06 f9bc a276 e9be
00000110: b007 72be c9e7 173c 97bc 723e 02f2 70be
00000120: ce39 41be d2e3 73ba 31d2 d43e 9202 0b3f
00000130: abbb 3e3f 6046 f5bc a28a 99be 4760 59be
00000140: ff66 1f3e 2d4f adbe cb4d 7ebe f662 3a3d
00000150: eb78 25be dd6d bcbe a960 5c3d 7550 79bd
00000160: f829 9cbe 90c3 6fbe 2a6f 81be 0442 883c
00000170: cc90 91be 0b07 54be 7640 16be 187b e13e
00000180: fabb b8ba 9f2e 843e 0291 fd3c 7e7c a6be
00000190: af7c bd3b 8e14 b3be b4f6 b4be a72b c9be
000001a0: 6ea1 873e ca2a 06bc 5ee0 553e 4edc 2c3f
000001b0: fee0 babe d8cb 7bba 461f 383d a6e1 85be
000001c0: 0608 5bbe 040f b9be 3aa6 abbe 7b8c e73e
000001d0: 6006 67be d609 f13e f3c1 b1be 7306 a8be
000001e0: 9dbd 803f a8d5 45be 8447 5fbe a0ce 9dbe
000001f0: fc92 0b3f a661 7fbe 3072 89be 3897 343f
00000200: 3757 80be a422 20be f1d8 833c 36e3 0d3f
00000210: 1710 60be c264 623d f2ee bcbe 5535 5dbe
00000220: ec67 273d a60f 7fbe 99d8 98be 8e6b 793e
00000230: 4017 31bb 89bd 863b fe50 92be 58ed 7bbc
00000240: b4cd a8be 6675 0b3e eb09 8bbe 462d 953d
00000250: 06be 9bbe 4a83 0c3d 4e7b 95be 09ac e6bd
00000260: 795b 263d 11e1 babe af0c 60be 4def 9bbe
00000270: 9b75 9abe e9e0 553d f5e3 363d 1be7 65be
00000280: bfaf a5be 05b4 33be 1df9 2c3f 834e a2be
00000290: a3af e73b e35d ce3e 779d 6bbd 306f 1d3c
000002a0: ed4b 663e c9dd 4c3e 0cae 4d3d e582 e93e
000002b0: 64dd 87be f311 933b f82d 18bd 07b1 9bbe
000002c0: 962e ba3c bb71 75be a19a e9be 41d1 af3d
000002d0: 3bdf 43be 40ed 5ebe 26ca 133d e5dd ed3e
000002e0: 483d bdbe 7c3c d73e 2611 1a3d b40c 53bd
000002f0: 5700 93be 188b 7dbd 041f b9be bd66 7abe
00000300: 7fee 80be 8572 b8be 7964 8dbe 805c 7abc
00000310: beb2 b2be ee7f 563d 8c0f 99be ce9f 54be
00000320: b39b 0d3e 4baa 22bd 87a3 e4be 1d67 003c
00000330: 023a d8be 9fd5 acbe 8ac3 5c3d 4a90 b83e
00000340: faba af3e 3fa4 56be fb74 91be 370a 89be
00000350: 2aea 36be f0aa a2be 1d6a 61bd 2bdd f1bd
00000360: a1da 8ebe 13b3 423d 8367 a0be 68f9 643e
00000370: cd04 a6be aaee afbe e132 7a3d 8942 fdbe
00000380: 9d19 f93d db5b 96be ae4a afbe 3ca3 21bc
00000390: f4fc 4fbe 895b 0cbd 536f 0dbd 50bb 733e
000003a0: 6ac2 f83e fff1 8fbe 46bb afbe 6a8f 90be
000003b0: d061 823c 992b 98be db23 acbe f04a 5bbe
000003c0: 4479 f63e 8565 8bbe 24c4 9cbe ff11 6bbe
000003d0: bd5d 0dbc 9b97 f13e 7408 cf3e 3957 d6bc
000003e0: 709e 083d cc05 233d d6b4 acbe b67f 95be
000003f0: 348c 613d 7e1b a9be 4cf7 a7be f8e5 2ebe
-0.289826 -0.43853438 -0.34389165 0.42268068 -0.29429471 -0.047572445 -0.304662 0.034275055
-0.13816822 -0.32985017 -0.1629764 0.36205617 -0.021022296 -0.23866838 -0.1877076 0.7870783
-0.108289585 0.07455395 0.05676187 0.06461307 0.47377044 -0.33566135 -0.43531933 -0.23248525
-0.3199262 0.0106300255 -0.30557224 0.011982979 0.30644375 -0.38342327 0.09222716 -0.086721264
0.13823073 0.008358635 -0.32897833 -0.22969554 -0.22026199 -0.28108045 -0.2767224 -0.0028964188
0.021169618 -0.25408137 -0.26002 -0.28456903 0.02774691 -0.29618555 0.64131796 -0.2700157
0.022889059 -0.0054546967 -0.41633403 -0.26752535 -0.2902737 -0.24001548 -0.2775026 -0.29158124
0.5816624 -0.30827552 -0.28879273 0.5997477 0.1661514 -0.33432263 -0.025540974 -0.364565
-0.2910941 -0.26719934 -0.03039869 -0.45598322 -0.23635745 0.0092715705 0.23704754 -0.23529819
-0.18869707 -0.0009303662 0.41566613 0.54300797 0.7450511 -0.029940784 -0.2998858 -0.21228133
0.15566634 -0.3384947 -0.24834363 0.045504533 -0.16159408 -0.3680257 0.05380312 -0.060867745
-0.3050077 -0.23414445 -0.25280124 0.016633041 -0.28430784 -0.20705812 -0.14673027 0.44039226
-0.0014094107 0.2581682 0.030952934 -0.32516855 0.0057826857 -0.3497662 -0.3534447 -0.39291117
0.2649035 -0.008188913 0.2088637 0.6752366 -0.3649978 -0.0009605265 0.0449517 -0.2614872
-0.2138978 -0.3614427 -0.33525258 0.45224366 -0.22561026 0.47077817 -0.34718284 -0.3281742
1.0057865 -0.19319785 -0.21804625 -0.30821705 0.54521155 -0.24939594 -0.2684493 0.7054324
-0.2506654 -0.15638214 0.016094657 0.5542482 -0.21881138 0.05527187 -0.3690105 -0.21602376
0.040870592 -0.24908313 -0.2985275 0.24357435 -0.0027021915 0.00411195 -0.28577417 -0.015376411
-0.3296944 0.13619003 -0.27156004 0.07284026 -0.30418414 0.034304895 -0.29195637 -0.11263282
0.04061458 -0.36499837 -0.21879838 -0.3045601 -0.3016785 0.052216444 0.04465099 -0.22451441
-0.32360646 -0.17549141 0.67567617 -0.31700525 0.007070498 0.40306005 -0.057523217 0.009609029
0.22489901 0.2000648 0.050214812 0.45607677 -0.26536095 0.0044882237 -0.037153214 -0.304085
0.022727292 -0.23969166 -0.45625785 0.08584834 -0.19128124 -0.21770191 0.036081456 0.46458355
-0.36960816 0.42038333 0.03761401 -0.051525787 -0.28711197 -0.06190023 -0.36156476 -0.24453254
-0.25181958 -0.3602487 -0.27615717 -0.015280843 -0.34901994 0.052368097 -0.29894674 -0.20764086
0.13828926 -0.039713185 -0.4465601 0.007837084 -0.42231756 -0.3375673 0.053897418 0.36047584
0.3432234 -0.20961092 -0.28409562 -0.26765606 -0.17862764 -0.3177104 -0.055032838 -0.118097626
-0.27901176 0.04753406 -0.31328973 0.22360766 -0.32425538 -0.34361774 0.06108368 -0.49464825
0.121630885 -0.29366955 -0.34236664 -0.009865578 -0.20311338 -0.034266982 -0.034529995 0.23801923
0.48585826 -0.28114316 -0.34322566 -0.28234416 0.015915781 -0.29720762 -0.33621106 -0.21415305
0.48139393 -0.2722589 -0.30618393 -0.22956084 -0.008628306 0.47185978 0.40436137 -0.026164638
0.033354223 0.03980045 -0.33731717 -0.29198998 0.05506535 -0.33028787 -0.3280586 -0.17079914

bias f4 [4]
00000000: 6203 933d 80e2 f93c 86e9 033e 0de4 863c
0.071783796 0.030503511 0.12882051 0.016466165
