models/dqn.pt (torch, 551392 bytes, 6 tensors)

weight f4 [512, 8]
000000 cc 3f 04 3e 80 57 1e 3d f6 39 eb 3e 47 0f c5 bd
       0.12914962 0.038657665 0.45942658 -0.096220545
000010 d2 a1 16 bf 28 07 e7 bd bb 19 4f 3c 20 32 48 3e
       -0.5884067 -0.11280662 0.012640412 0.19550371
000020 42 ab e6 be e8 27 d0 3d 65 c8 28 bf 4d e9 8a 3d
       -0.45052534 0.101638615 -0.6593078 0.0678278
000030 05 1d b9 bb 1f 4f 92 be e8 fc 9a bd 01 b1 32 3c
       -0.0056492114 -0.2857599 -0.07567769 0.010906459
000040 4a 38 aa bd bf d0 20 bd 98 b6 2f be 35 1c b9 be
       -0.083115175 -0.039261576 -0.17159498 -0.36154333
000050 28 fe 62 bd 72 7f a2 be 20 27 fc be a0 46 6b 3e
       -0.055418164 -0.31737858 -0.492486 0.2297616
000060 cc 73 74 3e 77 bf ce 3d 36 d6 fa 3e c0 fd da be
       0.23872298 0.10095113 0.48991555 -0.4277172
000070 db 70 13 3f 3f 3d 3d be 3e 37 9e be 82 43 a9 bd
       0.5759408 -0.18480395 -0.3090152 -0.08264829
000080 78 78 e1 3c a2 eb 90 bd 02 a0 71 3e 6e 1f bc be
       0.027523264 -0.070761934 0.23596194 -0.3674273
000090 eb 71 3c 3e 1f eb f6 3d 79 24 28 3e e1 88 9c 3e
       0.18402831 0.120565645 0.16420163 0.3057318
0000a0 77 06 84 be 50 ae 65 3e cb 01 c9 bd df aa c1 bd
       -0.25786182 0.22429776 -0.09814795 -0.09456419
0000b0 9a c8 d9 3d 3e bc 41 3e 11 59 93 3d 63 f0 7a 3e
       0.10633965 0.18919465 0.071947224 0.24505763
0000c0 a3 b3 00 bd 0d 18 83 be f1 0e df bd 34 61 9d be
       -0.031421315 -0.25604287 -0.10891522 -0.30738223
0000d0 1c a7 ec 3e b6 84 14 3c 8d 62 40 3d 20 4f 5b be
       0.46221244 0.009064844 0.046968985 -0.21416903
0000e0 f6 04 f9 bd 3f 5f 4c be 28 8f 12 3e ea e3 cb be
       -0.12159149 -0.19958209 0.14312422 -0.39822322
0000f0 95 f8 8f be f1 73 af be 41 f4 a6 be ef 4a 93 3d
       -0.2811934 -0.34268144 -0.32608226 0.07192027
000100 85 a3 20 bb 4f be 3f 3d 51 83 da bd fb 79 ef be
       -0.0024511528 0.04681235 -0.10669578 -0.4677275
000110 a7 98 ec 3e 55 02 01 3e 9f b0 a5 be 75 f7 cb be
       0.46210214 0.12598546 -0.32361314 -0.39837232
000120 53 63 55 3d 19 1e d4 bd 4b 9b 96 3e 47 28 aa be
       0.052096676 -0.10357303 0.29415354 -0.33233854
000130 dd 55 2d 3e 0c 38 42 3e 6a c9 96 bd 04 55 e5 3c
       0.16927285 0.18966693 -0.073626354 0.02799464
000140 30 69 f5 bc 11 fc 97 bd 70 3c 31 be 25 7a 1d be
       -0.029957384 -0.07421125 -0.17308211 -0.15378626
000150 30 8f ef be 20 38 a3 3e 39 80 49 be 81 51 98 bd
       -0.4678893 0.31878757 -0.1967782 -0.07437421
000160 8e 16 41 be d0 9b 20 3e 13 00 22 be 53 92 84 bc
       -0.1885626 0.15684438 -0.15820341 -0.016183054
000170 43 a0 77 bc 64 54 24 be 6f 0e 31 3e 41 62 a3 3e
       -0.015113893 -0.16047817 0.17290662 0.319109
000180 f0 2b 1b 3e 6a 74 82 3d 93 83 23 be ba c0 ba 3e
       0.1515348 0.063698605 -0.1596816 0.36475164
000190 08 73 a3 3e 4d 43 b2 3e be a7 67 be dc 2d 32 be
       0.319237 0.3481697 -0.22622582 -0.17400306
0001a0 ba 14 c6 3e 9a c4 65 bc 61 83 18 3c 6f fb 92 3e
       0.38687688 -0.014023924 0.009308667 0.28707454
0001b0 30 ee e8 be 21 df e6 bc 59 41 1c bf 71 74 90 bc
       -0.45494223 -0.028182568 -0.6103721 -0.017633649
0001c0 39 20 cf ba 37 f9 c5 3c 26 e1 c6 3e 7d 4b 13 3e
       -0.001580245 0.024166686 0.3884365 0.14384265
0001d0 c9 ee 4d be 45 32 85 3d ec b5 74 be 0e 2d a5 3e
       -0.2011062 0.06503729 -0.23897523 0.32260936
0001e0 05 fa 5a bd 49 5c 6d be a1 ba ff bd 98 df c0 be
       -0.053461093 -0.23179735 -0.124867685 -0.37670588
0001f0 b7 53 ab 3c 6b 97 ef 3e ff 13 7c bd 09 25 1a bf
       0.020913942 0.4679521 -0.061542507 -0.6021276
000200 a6 a5 88 be c2 33 58 3b d8 be ae 3e 9e 5f 8b be
       -0.2668888 0.0032989834 0.34129977 -0.27221388
000210 d9 60 47 3c 05 67 1f bd a7 33 74 be 37 71 2d be
       0.012169086 -0.038916606 -0.23847829 -0.1693772
000220 f8 cb 89 3e 7e 34 9a 3e b3 16 21 3e 6f 61 80 3e
       0.26913428 0.30118173 0.15731315 0.25074336
000230 b3 92 ea 3d 20 4a 8b be ef 36 e6 be 99 0d 56 3d
       0.11453762 -0.2720499 -0.44963786 0.05225906
000240 6f 6d d1 3e dd fd fc 3c f4 f2 bd bc 9c 5e 9e 3d
       0.40903804 0.03088277 -0.023187138 0.07732889
000250 df 8b 3a be 52 a5 a4 be af bd 30 3e 6b 62 58 3b
       -0.18217419 -0.3215738 0.17259859 0.0033017646
000260 1c fe 64 3e 24 c0 f3 bd c9 33 25 be 5f aa 84 3d
       0.2236256 -0.11901882 -0.16133036 0.06477808
000270 5c 4d c9 3e 3a d8 d2 3e fa 43 5f 3e c7 dc df ba
       0.39316833 0.41180593 0.21803275 -0.0017079347
000280 16 66 6f bc cd d3 12 be 29 cb bc be d9 53 9f be
       -0.0146117415 -0.14338608 -0.3687375 -0.31118658
000290 8f a2 ab 3e 36 f2 ea 3d 35 14 c1 3c 16 3f 51 be
       0.3352246 0.11471979 0.023569206 -0.20434222
0002a0 79 0e 7a bd fb b4 92 3e b8 1d b2 3e 72 08 a5 3d
       -0.06104896 0.28653702 0.347883 0.080582514
0002b0 fb 06 07 3e 23 12 05 bd fc e4 a1 be cb f6 3b 3e
       0.13186257 -0.032488 -0.31620014 0.18355863
0002c0 75 04 b0 bc 4a 9f a2 3c 72 a6 15 bd cf 91 3e 3d
       -0.0214865 0.019851346 -0.036535688 0.046525773
0002d0 02 a2 90 3f 45 d1 38 bd b7 2d 0b 3e b9 78 8f 3e
       1.1299441 -0.04512145 0.13591658 0.28021792
0002e0 c8 dc 5c 3c 05 dc da ba 05 0e 65 3c 49 48 a2 bb
       0.013480373 -0.0016697651 0.013980393 -0.0049524647
0002f0 b2 37 8d bf fa 1b 36 3d f7 6b b0 3e b3 ca 72 3d
       -1.1032622 0.044460274 0.3445737 0.05927534
000300 17 ca a5 bc 79 e4 a4 3d d3 14 09 be 04 47 6e 3f
       -0.020237966 0.0805139 -0.1338685 0.9307711
000310 89 cb b6 3d e9 19 5d be b9 ee eb bd 5a a4 28 be
       0.0892554 -0.21591915 -0.11520142 -0.16468945
000320 de c0 ba be 41 a5 1f be dc 28 41 be ae 9d 9b bd
       -0.3647527 -0.15590383 -0.18863243 -0.075984344
000330 95 18 24 3f 74 c5 38 3a 51 ec 39 bd ba e2 5a 3e
       0.6410001 0.0007048466 -0.045391385 0.21375552
000340 ce 40 d4 3c ff f5 78 3d a9 9a 26 bc 36 38 97 be
       0.025909808 0.060781475 -0.01016871 -0.29535073
000350 37 af cd 3c f6 ca c5 3d a4 48 a8 3e 9a 10 59 3e
       0.025107963 0.09657852 0.3286792 0.21197739
000360 28 ed ff 3d 28 89 23 be c0 ac a4 3e 66 85 44 3e
       0.12496406 -0.1597029 0.32163048 0.19191512
000370 d5 ce 02 be 12 d6 0a bf 4a ba 3b 3e 5b 84 ab be
       -0.12774213 -0.54232895 0.18332782 -0.33499417
000380 54 28 56 3c f7 36 43 3e cf 9f 21 bf 61 2a b5 be
       0.013071138 0.19063936 -0.63134474 -0.35383895
000390 2b 73 60 3e f7 12 1d be 6c ca 4c bd 86 6c 9a 3e
       0.21918933 -0.15339266 -0.049997732 0.30160922
0003a0 50 d7 87 3d 3a 2b b1 3e 55 d5 e0 bd 80 ba cc be
       0.066328645 0.34603292 -0.1097819 -0.39986038
0003b0 3f 4b 14 bc 15 8d dd bd 07 82 66 be cd 53 77 be
       -0.009051143 -0.10817925 -0.22510539 -0.24153061
0003c0 72 ee 4a 3e 55 c1 6d 3e 20 d9 c0 be 82 7d a1 be
       0.19817522 0.23218282 -0.37665653 -0.31541067
0003d0 ed ad b6 3e d2 4c c2 be 83 5b 82 be 4f 45 84 bd
       0.3567957 -0.37949234 -0.25460443 -0.06458532
0003e0 24 93 a5 3c 5b 05 3d 3e a4 8d eb bd 77 6e aa be
       0.020211764 0.18459074 -0.11501625 -0.33287403
0003f0 39 32 b7 be 4e 59 53 be 2a 1f cd 3d e3 00 a9 be
       -0.35780504 -0.20639536 0.1001571 -0.3300849

bias f4 [512]
000000 43 20 aa 3d d5 e0 38 be 07 89 56 bd e1 89 d7 3d
       0.08306935 -0.18054517 -0.052376773 0.10524345
000010 d0 ca ab 3e fb 34 78 3e 67 4d 06 be 71 b6 58 be
       0.3355317 0.2423896 -0.13115464 -0.21163346
000020 04 7b b0 3d 71 21 b8 3d 4d fc 8c 3e 9b 94 89 3e
       0.08617213 0.089907534 0.2753624 0.2687119
000030 6f 3b 82 3e fd 2c a3 3e 9a 84 2b be 04 64 6c be
       0.2543597 0.3187026 -0.16749802 -0.23085028
000040 b3 29 8d 3e 2e f0 80 be ea 43 87 bd e9 49 95 3e
       0.27570876 -0.25183243 -0.066047505 0.2915795
000050 ba 5a 83 3e ca a8 99 3e 78 1a 40 39 97 38 26 3a
       0.25655156 0.30011588 0.00018320407 0.000634083
000060 b0 ce 3d 3e 08 fe 5c 3e 5a 8e b1 3d 80 3f ea bc
       0.18535876 0.2158128 0.086697295 -0.028594732
000070 e0 31 80 be e9 f8 da bd b0 ac a6 3e 77 be 98 3d
       -0.25038052 -0.10692007 0.32553625 0.07458203
000080 34 b2 1b 3e c8 94 a4 3e 32 64 9d 3e fa 99 2f 3e
       0.15204698 0.3214476 0.30740505 0.17148581
000090 eb 01 29 3d 73 7a 90 bd 30 7f 5e 3b 6f b6 18 bb
       0.041261595 -0.07054605 0.0033950321 -0.0023302098
0000a0 37 3e 59 be ff ea 92 be b8 86 54 be 5b ab 07 3e
       -0.2121514 -0.28694913 -0.20754516 0.1324896
0000b0 54 5a ad 3e bb 62 86 bc af 16 68 be a7 ca 18 3e
       0.33857977 -0.0164045 -0.22664903 0.14921056
0000c0 96 48 5e 3e a1 d9 39 3e fd d4 d8 bb ac cc 19 3d
       0.21707377 0.18149425 -0.006617187 0.037548706
0000d0 ac 56 b9 bd e2 61 4f be 96 d4 22 bd 24 f0 2d 3e
       -0.090497345 -0.20252183 -0.03975352 0.16986138
0000e0 ef 0b 8f 3e 67 7e 95 be 3f 55 6e be 22 b9 4e be
       0.27938792 -0.29198 -0.23274706 -0.2018781
0000f0 80 6c 8f 3e a6 4f 67 3e b2 c8 81 3e 6c da 72 3e
       0.28012466 0.22588977 0.2534843 0.23716134
000100 70 c6 81 3e bb 60 15 3e e6 65 85 3d e5 0f d8 3c
       0.25346708 0.14587681 0.06513576 0.026374767
000110 c9 71 d6 3a 3d 39 61 be c0 b9 a5 3e 1a 39 8f 3e
       0.0016360815 -0.21994491 0.32368279 0.27973253
000120 3f d9 93 bd e5 84 09 3d 79 78 15 be 53 e5 2c be
       -0.07219171 0.033574004 -0.14596738 -0.16884355
000130 fe 08 87 be 3c a5 49 be 30 f2 26 3e f7 26 21 be
       -0.26374048 -0.19691938 0.16303325 -0.1573752
000140 49 f1 64 3e 45 8f f7 bd 01 96 ae 3e c7 d2 6d 3e
       0.22357668 -0.12087873 0.3409882 0.23224936
000150 95 c6 99 be 4a ad 3a be ab e0 41 3e 58 f8 4d 3e
       -0.3003432 -0.18230167 0.1893336 0.20114267
000160 20 6f b5 3e c3 00 48 3e e7 b0 55 be c8 3d 3e bd
       0.35436344 0.1953154 -0.20868264 -0.046445638
000170 95 91 15 be 69 58 31 be ef ac cc 3e b1 e5 9f bc
       -0.14606316 -0.17318882 0.39975688 -0.019518705
000180 4e 82 10 be 33 87 89 3e 92 17 36 bd 8c d2 66 3d
       -0.14112207 0.2686096 -0.044456072 0.056353137
000190 d7 36 84 3e 05 1c 75 be 13 07 8f bc 26 af c6 3b
       0.2582309 -0.2393647 -0.017459428 0.00606336
0001a0 75 2d e7 3d 21 e7 18 be e9 d7 3d bc 1c 15 10 be
       0.11287967 -0.14931919 -0.0115871215 -0.14070553
0001b0 a9 bd a0 b9 b4 d8 5f be 32 4d 1c 3e a2 e9 9f 3c
       -0.00030658886 -0.2186001 0.15263823 0.019520584
0001c0 3f 65 94 be 55 f6 17 3e c7 40 62 3e 7e 08 17 3e
       -0.28983495 0.14840062 0.22095023 0.14749333
0001d0 71 75 4b 3d e9 06 00 3b 41 a1 20 be 70 2a 1d 3e
       0.049672548 0.0019535369 -0.15686513 0.1534822
0001e0 4f e0 9a 3e 20 f3 57 3e 5d 72 72 be 34 93 ad bd
       0.3024926 0.21088839 -0.23676439 -0.084753424
0001f0 1c 4b 7c 3e 4e c4 77 3c 81 f1 9b 3e e2 e9 58 be
       0.24638027 0.015122486 0.3045769 -0.21182969
000200 bb a2 14 ba 9a 7b 5f 3e ce 41 35 be 27 44 36 3d
       -0.00056700007 0.21824494 -0.17700884 0.04449859
000210 7c 6d 8e be c1 29 37 be 20 b7 c2 be 00 91 98 3e
       -0.27817905 -0.17887022 -0.38030338 0.29798126
000220 5e c0 8f 3e 12 ca e4 bd 71 15 30 be c0 80 03 be
       0.28076452 -0.11171354 -0.17195679 -0.12842083
000230 33 d2 56 3e 27 6b 9e 3e 3d a1 69 3d 6b f5 b2 bd
       0.20978622 0.30941126 0.057038534 -0.08738216
000240 99 da 27 be 16 54 18 3e ba b6 b8 3e 9b 8f a7 3d
       -0.16391982 0.14875826 0.3607691 0.081816874
000250 e1 1b a7 be 08 fe 47 be 2f 86 73 ba aa 40 da 3d
       -0.32638457 -0.19530499 -0.0009289709 0.10656865
000260 44 25 fd 3d 2c 1b 4b be ca 35 d3 3c ee c5 7b bc
       0.123606235 -0.19834584 0.025782485 -0.015367014
000270 f8 ec 31 3e 5c f5 24 be 15 ba 37 3e dc 9a 72 be
       0.17375553 -0.16109222 0.17942078 -0.23691887
000280 37 2d 88 be 3b 14 5d 3e db 85 9b bc af 4b 8f 3e
       -0.26596996 0.21589749 -0.018984726 0.2798743
000290 77 47 07 3e 2f 52 5c bc 36 5c 75 3e a1 24 9c 3b
       0.13210855 -0.0134473285 0.23960957 0.0047651087
0002a0 50 29 5d 3e 79 85 e7 bd a5 cd 46 3e 19 1e 81 3e
       0.2159779 -0.11304755 0.19414385 0.25218275
0002b0 47 63 87 3d f7 9c 90 3e 3b d0 91 3e b0 4d e4 3b
       0.066107325 0.28244755 0.2847918 0.006967269
0002c0 43 51 ac bd 39 d6 00 bd 96 42 af 3e ed 39 24 bc
       -0.08413937 -0.0314543 0.3423049 -0.010023576
0002d0 0d 3f 41 be a6 f8 0e 3a 4e 21 4e 3e d8 41 a6 3e
       -0.18871708 0.00054539216 0.20129892 0.3247211
0002e0 52 f6 b4 3e 23 6f 86 3d e5 86 15 ba 7b 24 4c be
       0.35344177 0.065641664 -0.0005704 -0.19935791
0002f0 d0 c1 3a 3e db ec 34 3d 86 96 b1 3e c5 ea c4 3d
       0.18237996 0.044171195 0.34685153 0.09615091
000300 57 3e 67 3e 60 56 f4 bb 5f 75 82 3e ee 28 bd be
       0.22582375 -0.0074565858 0.25480172 -0.3694529
000310 d6 18 a3 3e 3b 67 e1 3d a3 7d 61 3e d5 d8 86 be
       0.31854886 0.11006018 0.22020583 -0.26337305
000320 d1 27 d5 bd 0e 02 67 3e 75 b9 79 be 6c b2 cb 3a
       -0.10407985 0.22559378 -0.24387152 0.0015540845
000330 dc 36 a7 3e d5 ea 2c 3e 3b 68 e4 bc 57 22 1b be
       0.32659042 0.16886456 -0.027881732 -0.15149818
000340 38 1c 5e bd e9 dc be 3e 35 88 4d bd 96 4b 43 3e
       -0.05422613 0.37277916 -0.050178725 0.19071802
000350 ab fd 79 be e3 e4 bd bc 26 37 a9 3e a9 4c 13 be
       -0.24413173 -0.02318043 0.33049887 -0.14384712
000360 70 33 d4 bd 40 9f 1f 3e 8c cb fd bc da 02 8c 3d
       -0.103613734 0.15588093 -0.030980848 0.068364814
000370 93 e9 0b bd 95 98 27 be 1b 23 37 be 6d 34 b5 3d
       -0.0341583 -0.16366799 -0.17884485 0.0884789
000380 f4 0c 87 be 96 2b de 3d 4a c6 11 3d 50 66 44 3e
       -0.2637707 0.10848157 0.035589494 0.19179654
000390 ac d4 ac 3d b5 f7 14 bd 03 78 3b be 79 b7 d8 3c
       0.084390014 -0.036369044 -0.183075 0.026454674
0003a0 3d d2 7f be 5c b3 64 be 5e 22 1d be 99 95 d1 3d
       -0.24982543 -0.22334045 -0.15345141 0.102336116
0003b0 e4 fc 3f 3c f8 10 98 3e ab 22 30 3d 46 91 db 3d
       0.011718009 0.29700446 0.043001812 0.10721068
0003c0 a8 7c 82 3e 11 f4 7c be bc f2 04 3e e6 81 1d be
       0.2548573 -0.24702479 0.12983221 -0.15381584
0003d0 b2 f7 02 be 21 d2 82 ba fb d0 85 3e d7 38 e0 bd
       -0.12789801 -0.0009980836 0.26136002 -0.10948341
0003e0 ae 58 8a 3e ae 8f 37 bc 59 1b f6 38 49 d7 7a 3e
       0.27020782 -0.0112036895 0.00011735288 0.24496187
0003f0 81 b4 09 be be 86 cc 3d d3 70 2f be 23 33 da bc
       -0.13447763 0.099866375 -0.17132883 -0.026635712

weight f4 [256, 512]
000000 58 60 ee bd f8 23 1b bd aa 39 43 bd 18 5d 17 3d
       -0.1163947 -0.0378761 -0.047662415 0.036954015
000010 37 c5 14 3d 79 19 20 3d 34 16 6a bd 30 8d bb be
       0.03632089 0.039086793 -0.05715008 -0.36631155
000020 c0 cc 28 3d 2f a5 1c bd 8f 4b 74 3d 67 a6 17 3d
       0.04121089 -0.03824347 0.05964237 0.037023928
000030 ce 31 42 3b eb 52 d6 3a 35 e7 8f be 90 48 23 bf
       0.0029631737 0.0016351616 -0.28106084 -0.63782597
000040 68 aa 15 3b f4 86 13 be c9 01 cf bd 92 67 82 bd
       0.0022837166 -0.1440695 -0.10107762 -0.06367411
000050 8e b0 88 3d 13 bf 82 3c e9 54 10 3f dd 55 b8 3e
       0.066743 0.015960252 0.5637956 0.36003008
000060 fb 02 8e bc cf af 8b 3d 7e 64 8e 3d 4f 4e f6 bd
       -0.017335406 0.06820642 0.06952761 -0.12026655
000070 11 58 56 3e ac 34 c8 3d 5f 7a 78 3d 7b f4 e4 3d
       0.20932032 0.09775671 0.060663577 0.111794434
000080 dd 82 2d 3c 40 dc 3e 3d d2 f8 55 3d 8b e4 4d 3d
       0.010590282 0.046596766 0.052239247 0.050266784
000090 9b fb 55 3e f9 48 2d bc 7f aa 0a 3f 20 7a 54 3c
       0.20896761 -0.01057648 0.54166406 0.01296857
0000a0 30 a7 00 be 7d f1 13 be 27 00 be bd 60 8d 0c 3d
       -0.12563777 -0.14447589 -0.09277373 0.034314513
0000b0 8d 99 91 3c 06 f4 5b be c6 37 5d 3d e0 f0 92 3e
       0.017773414 -0.21479806 0.054008268 0.28699398
0000c0 89 a6 4b 3d 60 26 3f bd bd f8 ce 3d 04 b1 e4 3e
       0.049719367 -0.046667457 0.10106037 0.44666302
0000d0 38 18 1f be cd 63 ae 3e e9 0a 0a 3e e9 0e a3 bd
       -0.15536582 0.34060517 0.13480724 -0.07961828
0000e0 df 75 e7 3c 58 7d 1a be 25 67 dc bd b9 b6 a1 39
       0.028254448 -0.15086877 -0.10761861 0.00030844452
0000f0 4c 9d 9a 3d e0 6c 5a 3d 51 33 51 3d 34 06 a0 3c
       0.07549533 0.053326488 0.05107433 0.019534208
000100 ff 59 90 3d db 8d 9c 3d 89 14 d6 3d 51 30 19 3d
       0.070484154 0.07644244 0.104531355 0.037399594
000110 0d 8f 34 3e 03 89 88 3e 13 b3 45 3d e5 85 3c 3d
       0.17632695 0.26667032 0.04826648 0.04602613
000120 47 eb b5 be e5 ca 14 3e b2 c5 8f bd ed a7 8d be
       -0.35531065 0.14530523 -0.07020129 -0.2766718
000130 53 96 dc bc 02 74 2f be cc 7f 6f bd c0 2a 40 be
       -0.026927149 -0.17134097 -0.058471486 -0.18766308
000140 f7 2e 3c 3d 06 ce f0 bd 8f fd 98 3d 16 30 0d 3d
       0.045943227 -0.11758046 0.074702375 0.034469686
000150 86 a5 a2 bd b1 0a 78 be 57 2c 4a 3d 8b 3a d7 bc
       -0.07941727 -0.24222828 0.049358692 -0.026273033
000160 a6 2a 47 bb 1f f5 42 3b 34 2a b7 bd 64 45 49 3d
       -0.003039041 0.0029748154 -0.089435965 0.04913844
000170 e4 3f 59 3d fe f6 95 be a5 d6 32 be 77 c4 99 3d
       0.053039446 -0.29290003 -0.17464693 0.07508176
000180 91 49 f8 3d ce 7b 70 3d 5e e2 94 3c 50 32 54 3d
       0.12123407 0.05871182 0.018174347 0.051805794
000190 e3 4f 8c 3d 24 d4 c1 bc e5 9a a7 3d b9 23 8c 3d
       0.06851175 -0.023660727 0.08183841 0.06842751
0001a0 6a 9b 57 3e ff d2 5d be c3 0f ad bd a9 fc 42 bc
       0.2105538 -0.2166252 -0.08450272 -0.011901059
0001b0 0e 4a 7d 3e 8e 6f 02 3d 13 87 a0 3c 8e 69 a2 3e
       0.24735281 0.031844668 0.019595658 0.31721157
0001c0 4b 17 36 bd 17 5f 12 bb 01 b8 e6 3d 44 5a b1 bc
       -0.044455808 -0.002233451 0.11265565 -0.021649487
0001d0 8d 70 39 3d 4b 3e ae 3d a1 07 5b be 58 58 19 be
       0.045273352 0.08507975 -0.21389629 -0.14975107
0001e0 71 61 41 3d 6a 73 03 bd cf 1f a7 bd df 0d a8 3d
       0.047212068 -0.03209249 -0.08160364 0.08205771
0001f0 e0 03 b7 3c 92 91 c9 3d 71 31 4e 3d 47 7f 7a 3d
       0.022340715 0.098422185 0.05034012 0.061156537
000200 99 13 ee 3e 4f 12 e3 bd 84 5e 23 3e 7c cb fd 3d
       0.46499327 -0.110874765 0.15954024 0.12392327
000210 d9 82 aa be 37 ad b9 bb 36 98 23 3e 43 b7 10 3e
       -0.33302954 -0.005666401 0.15976033 0.14132409
000220 56 55 61 3d 23 58 da 3c cd 4e eb bc 69 e6 e4 bc
       0.055013023 0.026653355 -0.028724099 -0.0279419
000230 a7 95 77 3d 2f e0 b4 3d 50 86 10 3e ac 6e 35 3d
       0.060445454 0.08831822 0.14113736 0.044294998
000240 83 9f 10 be fc e6 16 bd 80 f4 ae 3d 36 94 24 3e
       -0.14123349 -0.036841378 0.085427284 0.16072163
000250 0d 8b f9 3c d2 6d c0 bd eb ec 68 3d a7 04 81 bd
       0.030461812 -0.093959466 0.056866568 -0.062997155
000260 77 fe 9d bc 4a af 62 3e a5 e1 c3 3d c5 26 2f be
       -0.019286377 0.2213718 0.09564523 -0.17104633
000270 17 27 88 bd 28 98 dc bd 1a aa 07 3e fd f1 3c be
       -0.06648081 -0.10771209 0.13248482 -0.18451686
000280 e2 fd 84 be 35 23 e4 bc be 20 59 3e cf 8d c5 bd
       -0.25974947 -0.02784882 0.21203896 -0.096461885
000290 8e b8 c0 bd 61 f9 e5 bc 9f e3 06 3e 3d c1 02 3f
       -0.09410201 -0.028073015 0.13172768 0.5107611
0002a0 09 77 7e be 99 24 ea 3e 1d 7c 40 3d 98 dc 12 3d
       -0.24850096 0.45731047 0.046993364 0.035854906
0002b0 b7 b7 11 3e 5b 6c 1b 3d 93 eb 0f be 0e dc b5 3d
       0.14230238 0.037945133 -0.14054708 0.08879863
0002c0 c8 f8 75 be df 16 bf bd 2e b6 69 3c 9e e9 cb 3d
       -0.24020684 -0.09330534 0.014264626 0.09956668
0002d0 67 38 12 be e9 01 b5 3e 98 49 a1 3c 11 88 74 3c
       -0.14279328 0.3535302 0.019688413 0.014925019
0002e0 a0 0e 5f bc 58 d7 47 3d 04 7e 96 3e 41 dc d2 be
       -0.013614327 0.048789352 0.29393017 -0.41183665
0002f0 d4 d7 20 bc 5c 40 04 bd 2d c4 98 3d 36 73 20 3e
       -0.009817082 -0.03228794 0.074592926 0.1566895
000300 4d 69 8b bc 96 13 bb bd 96 bd e5 3c a7 b4 5b bd
       -0.017017985 -0.09134595 0.028044503 -0.05363908
000310 fe fc 77 3d 6a df 84 3e ea 71 17 3e fc af 98 bd
       0.060544007 0.259517 0.14789549 -0.07455441
000320 01 02 ef 3d 2f 4b 70 3d ea 05 db 3c 8a 95 b1 be
       0.11670304 0.05866545 0.026736218 -0.34684402
000330 8d b9 4e be de 31 07 3d 14 c9 e2 3d 8b d6 a1 3e
       -0.2018797 0.03300654 0.11073509 0.31608996
000340 34 4b 35 be a3 ea a6 3c c0 9e 73 3e c7 d1 80 3d
       -0.17704469 0.020375555 0.23791027 0.06290012
000350 2d 39 81 3e d8 8e a2 be 77 41 a0 bb e5 e2 31 be
       0.25238934 -0.31749606 -0.0048906165 -0.1737171
000360 9c 73 af 3d ba 9c cc 3b 37 d4 45 bc 28 3e 18 bd
       0.085669726 0.006244269 -0.012074522 -0.03716865
000370 48 55 17 3d 14 80 de bd 36 ac 3c be cc 48 b2 3d
       0.036946565 -0.10864273 -0.18425068 0.08705291
000380 26 50 91 be d5 c9 6f 3c 6e b6 df bd eb 60 08 3d
       -0.2838146 0.014635523 -0.109234676 0.033295553
000390 03 03 bc bd 04 82 c3 3d da eb a9 bd ce e9 c7 bd
       -0.09180262 0.09546283 -0.08296938 -0.097613916
0003a0 db e7 9a bd 96 30 ad bc c3 0c 43 3e 58 f6 d8 3d
       -0.07563754 -0.021141332 0.19047837 0.10593861
0003b0 dd 26 7c bd 62 3e 32 3e f6 d1 97 3d 75 03 13 be
       -0.0615605 0.1740661 0.07413094 -0.14356788
0003c0 f4 a8 2f bb b2 d6 d0 be b8 29 28 be 5a eb 1f bf
       -0.0026803585 -0.407888 -0.16422164 -0.62468493
0003d0 f3 0e d9 3e 7c e0 0e be 80 be 26 3d c1 3d 08 3e
       0.42394218 -0.13952821 0.04070902 0.13304807
0003e0 eb db 68 3e 2d c5 f6 38 d0 50 a5 3e 5b 4f 8b bd
       0.22740142 0.00011766921 0.32288218 -0.06802245
0003f0 0f b9 ec 3d eb dc 89 bd 63 35 26 be ff 90 de bd
       0.115587346 -0.0673159 -0.16231303 -0.108674996

bias f4 [256]
000000 a5 a1 98 3c 4a c9 1d bd e4 7d 32 3d d2 90 ce 3c
       0.018631766 -0.038522042 0.04357709 0.02521554
000010 d7 be 17 bd fd b1 a2 3a d0 ea b3 3d f6 af 56 bc
       -0.037047233 0.0012412664 0.08785021 -0.013103476
000020 cb 5e 2a 3d 0c 23 54 3d 67 50 16 3d b4 4d 4d 3d
       0.041594308 0.051791236 0.03669777 0.05012293
000030 2c 0d 18 3d 03 41 9a 3d 7b a8 16 bd d5 77 29 3d
       0.037121937 0.07531931 -0.03678177 0.041374046
000040 62 67 70 3d 87 25 02 3d 2e 33 79 3d 83 70 b0 3c
       0.058692344 0.03177407 0.060839824 0.021538025
000050 91 21 d5 3d b4 fa 82 3b d2 e8 7c 3c 8c 69 53 3d
       0.10406793 0.0039971713 0.015436368 0.05161433
000060 f6 a0 3d 3d 28 93 98 3d 79 23 e5 3b 94 d4 00 3d
       0.046296082 0.07449943 0.006992754 0.03145273
000070 1b 5c 8d 3c f4 17 24 bc 61 fd be 3d aa cc 5e 3d
       0.017255833 -0.0100154765 0.09325672 0.0543944
000080 3e 20 ea 3c e8 1f 6d 3d b4 ce db 3c 94 ca 71 3d
       0.028579827 0.057891756 0.026831962 0.059031084
000090 d8 a5 70 3d ac b6 b2 3c 3c ae 9a 3c 06 06 a8 3c
       0.05875191 0.02181562 0.01888191 0.020510685
0000a0 c3 be cd 3d ae e3 2a 3d b0 bc 7b bc fa dc 5e 3c
       0.100461505 0.04172104 -0.015364811 0.01360249
0000b0 af ae b1 bc 95 a3 3e 3d 7f 2a 97 bc 58 f3 1d bd
       -0.021689741 0.046542723 -0.01845288 -0.03856215
0000c0 ca 99 c9 3d fc a8 ab 3c b4 8d c6 3d 7b c1 81 bc
       0.09843786 0.020954601 0.096949965 -0.015839329
0000d0 00 32 21 bd 40 a7 95 3c 47 22 bf bc 4a f4 4a 3c
       -0.039354324 0.018268228 -0.023331774 0.012387345
0000e0 50 9e b5 3a e7 79 4a 3d 46 e1 45 3d b8 a9 da bb
       0.0013856385 0.04943266 0.04831054 -0.006673064
0000f0 05 46 b9 bd b5 af 7f 3d ad 8d f1 bc a4 a2 3c bd
       -0.09046558 0.062423427 -0.029486502 -0.046053544
000100 5d 5c 66 3c c0 ec e4 3c 77 ed 73 bc 6f ba f6 3b
       0.014060107 0.027944922 -0.014888159 0.007529549
000110 83 cf e1 bc 87 be 79 b9 b7 be 22 3d 2c ee 9d 3d
       -0.02756477 -0.00023817467 0.03973266 0.07711443
000120 ce 38 85 3d 5a 8e 19 bd f4 c6 3e 3c 24 28 5f 3d
       0.06504975 -0.037489273 0.011644114 0.05448164
000130 71 88 6c 3c d5 6b f6 3c 52 53 34 3d 31 0f 35 3d
       0.014436827 0.030080715 0.044024773 0.04420394
000140 f1 6b a2 3b 5d 2b 95 3d ca 45 46 3d 65 9a a7 3c
       0.0049567153 0.072836615 0.0484064 0.020459363
000150 6e 4a 93 3c 21 27 00 3b df 52 c4 3d a4 88 e5 3c
       0.017979827 0.0019554573 0.09586119 0.028019257
000160 84 8e 54 3d d4 07 95 3b 2c 3a ea bc 7f ae 70 3d
       0.051893726 0.0045480523 -0.028592192 0.058760162
000170 e7 69 ba 3c b3 5a d4 3d 28 87 59 3d 7f 3f 92 bd
       0.022755576 0.10368862 0.05310741 -0.07141017
000180 4e 54 1e 3d 4c 22 80 bc ed 52 6a bc 7f 65 4b 3d
       0.038654618 -0.015641354 -0.014301998 0.04965734
000190 db 4d e0 3b c6 25 45 3c 9d 1d c7 3d 42 7e 24 bd
       0.0068452186 0.012032932 0.09722445 -0.04015947
0001a0 d4 9d a1 3c 69 9c 55 ba 9c 77 ad 3c 6d d1 3d 3d
       0.019728579 -0.0008148612 0.021175198 0.046342302
0001b0 0b 01 d4 3c 42 87 61 bd 65 aa 16 bc ee 41 d5 3c
       0.025879404 -0.055060633 -0.009195899 0.026032414
0001c0 86 c2 c1 39 4f 8e 5c 3d ae 96 97 3c 14 90 3b 3d
       0.0003695676 0.053846654 0.018504467 0.0457917
0001d0 fd 5b 29 3d 38 07 3e 3d a0 9a 78 3c 0b 5e d9 3c
       0.041347492 0.046393603 0.015173584 0.026534101
0001e0 d2 af 3d 3c fd cb 87 3d de 63 f3 3c 6a 58 1b 3d
       0.011577563 0.066307046 0.029710706 0.037926115
0001f0 22 6f 22 3c 93 d1 c1 3d 38 c8 7e b9 99 b7 c0 bc
       0.009914191 0.09463801 -0.00024297915 -0.023525046
000200 79 73 85 bc 86 db 22 bd 69 ef ae bb f9 05 a0 bc
       -0.016290413 -0.039760135 -0.0053385985 -0.019534098
000210 8d 30 78 bb 60 6d 9e 3c 38 ee 77 3c 2f cd e8 bc
       -0.0037870735 0.019339263 0.015132479 -0.028418152
000220 7a 91 62 3d 42 96 65 3c 41 f7 0b bd 60 ca 69 3d
       0.05531452 0.014012875 -0.034171347 0.057077765
000230 36 13 5d 3b 4c 51 e2 bc 86 eb 7e 3d b4 67 bc 3d
       0.0033733374 -0.027626656 0.06223633 0.09199467
000240 d9 8f 7b bd c2 b5 74 3c c0 ab a9 3c 02 a9 29 3d
       -0.06141648 0.014935913 0.02071178 0.041420944
000250 7f 9e a7 3d 13 13 78 3c 90 49 26 3d ad 28 8b 3c
       0.081845276 0.015141266 0.0405975 0.01698717
000260 ad cd ee 3c f8 f7 59 3c d7 3b 21 3c 11 60 36 3d
       0.029150808 0.013303749 0.009840927 0.04452521
000270 f6 b8 07 bd 77 7a 84 3b 9b 22 ea 3c 99 c8 19 3d
       -0.033135377 0.0040429193 0.028580954 0.03754482
000280 ff a5 de 3c ff 27 d6 3c 58 27 2c 3d e5 c9 2e 3d
       0.027178762 0.026142118 0.04202971 0.04267301
000290 2c fc 01 bc 85 43 d8 3d 3c d8 bb 3c 9c 3a f9 3d
       -0.007933658 0.10559753 0.022930257 0.12169382
0002a0 5a 7f 29 bd b6 ba 88 3b d9 71 72 3c 3a 84 ab 3d
       -0.041381218 0.0041726483 0.014797651 0.083748296
0002b0 2d e7 b4 3c 1f b1 8e 3d e1 a3 15 3c 82 a9 ba 3c
       0.02208289 0.06967377 0.00913331 0.022785906
0002c0 d7 88 61 3c a8 43 0a 3d a0 44 14 bd 4f 81 d9 3d
       0.013765535 0.03375593 -0.03619826 0.10620367
0002d0 c9 1e fc bc 17 27 7d bb 52 92 47 3d 69 b6 97 ba
       -0.030776398 -0.0038628036 0.048723526 -0.0011574748
0002e0 f0 19 23 bd 46 7d 88 3c 49 0e 65 3d 1e 7e 43 3d
       -0.039819658 0.016661298 0.055921827 0.047727697
0002f0 fb 47 3b 3b a2 0f ec ba ec 56 82 bc 9e 1b be 3c
       0.002857684 -0.001801003 -0.015910588 0.023206528
000300 a9 a2 43 3d 50 7e 0c 3d fc 5f 6d 3b c5 0d 88 3d
       0.047762547 0.03430015 0.0036220541 0.06643251
000310 db 4b 82 3b 6c 1b eb bb 42 43 dc bc 0b 07 7f bb
       0.003976328 -0.0071749 -0.02688754 -0.003891411
000320 8c 0b 1f 3c 21 e6 00 bd 24 77 aa 3c 1e ff 08 bd
       0.009707343 -0.031469468 0.020808764 -0.033446424
000330 29 96 e3 bb e3 1c d0 3c 02 e3 d5 3a 96 04 a9 ba
       -0.0069453907 0.0254044 0.0016318264 -0.0012895043
000340 b2 15 5a 3b de 1f 81 3c d1 57 f2 bc d3 6a fa 3c
       0.0033277092 0.015762266 -0.02958289 0.030568516
000350 b6 36 c7 3d 20 f7 28 3c a4 f6 f5 3c c2 66 22 bb
       0.09727232 0.010312825 0.030024834 -0.0024780487
000360 d5 32 b1 3d 44 36 50 3d 3a 19 d5 bc aa 20 b9 3c
       0.086522736 0.050833 -0.026013006 0.022598583
000370 09 ec 2c 3d 80 d3 c2 3d 63 f1 a1 3c f5 1d 7e 3c
       0.04221729 0.09512997 0.019768422 0.015510072
000380 96 51 8e ba da a9 2c 3d 08 9b 8a bc ec dd 95 3d
       -0.0010858055 0.04215417 -0.016919628 0.07317719
000390 c4 6f d3 bc d8 46 1c 3d 73 2f 76 bc bd cf 89 3c
       -0.02581013 0.0381535 -0.015025961 0.01682269
0003a0 08 e1 d7 bc 38 6d 0f bd cf 9b c3 3d 75 da 43 3b
       -0.02635242 -0.03501627 0.095512025 0.002988485
0003b0 a5 ba 03 bd 49 4d 2b 3d cb e5 0e 3d 77 dd b9 3a
       -0.03216042 0.04182175 0.034887116 0.0014180382
0003c0 8e ac b6 3b f3 a1 1d 3d 08 f9 13 3d 90 3e 3c bd
       0.0055747693 0.038484525 0.036126167 -0.0459581
0003d0 d3 27 a1 3c e8 c2 98 3d 1b e8 c7 bb 3e c2 3b 3c
       0.01967231 0.074590504 -0.006100667 0.011459885
0003e0 a7 7c 72 3c 21 ee 0c 3d ac 91 c8 bc f3 47 09 3d
       0.014800227 0.034406785 -0.024483524 0.03351588
0003f0 20 85 3c 3d 98 b3 0f 3d 20 0f 58 3c d7 34 36 3d
       0.046025395 0.035083383 0.0131872 0.044483986

weight f4 [4, 256]
000000 50 7f 7b 3e 25 84 c2 ba cd ba 89 be cc fa 2c be
       0.24560285 -0.0014840408 -0.2690033 -0.16892546
000010 d9 84 b8 3e bd e5 80 3e 58 5b 12 3e e1 2c 15 3d
       0.36038855 0.25175276 0.14292657 0.036419753
000020 69 c2 52 3e ff da d1 3e a8 e2 2a 3e 8a ff 60 be
       0.20581974 0.40987393 0.16688025 -0.2197248
000030 8c 8b 22 be aa 37 6c 3d c0 d7 43 3d b8 da c0 bd
       -0.15873545 0.057670273 0.047813177 -0.09416717
000040 c0 0f 86 bd 96 4d 5c 3e 75 50 a5 be d6 d8 92 be
       -0.06545973 0.21513972 -0.32287946 -0.28681058
000050 57 1e 5c 3e 3a b4 71 be 70 3e 9c be 95 d9 a5 be
       0.21495949 -0.23603907 -0.30516386 -0.32392564
000060 5e 4c 7b 3e 36 06 84 3f 8d c8 8f be 32 48 45 3e
       0.2454085 1.0314395 -0.28082696 0.19265822
000070 9d 6e 36 be 49 1c be bc a0 b0 8f 3e 42 fe 97 be
       -0.17815633 -0.023206847 0.28064442 -0.2968617
000080 7e 81 75 be 4a 77 d2 bd 22 30 c8 be 60 ef ae 3e
       -0.23975179 -0.10276659 -0.39099222 0.34167004
000090 1d c0 b0 be 70 9f d6 3c 10 c5 c1 3c 99 c1 66 3e
       -0.3452157 0.026199073 0.023653537 0.22534789
0000a0 e8 49 9b be 63 a0 31 be 6b 6a 43 bd 0b bf 67 be
       -0.30329823 -0.17346339 -0.04770891 -0.22631471
0000b0 66 f6 c8 3c 9f 5f ea 3d c9 f2 ae 3c 4b 80 08 3d
       0.024531554 0.114440195 0.021356003 0.033325475
0000c0 a2 20 0b 3e 5c d2 da 3d 72 9e 3e 3e 91 9b d2 3d
       0.13586667 0.10684654 0.1861513 0.10283578
0000d0 33 1f 96 3c b5 56 b9 be a8 a6 a1 be 22 d5 7b 3e
       0.018325424 -0.36198965 -0.3157246 0.24593022
0000e0 94 1f dc bc 52 54 81 be 80 76 ac be 84 0a 93 be
       -0.026870526 -0.25259644 -0.33684158 -0.2871896
0000f0 b6 a0 45 be a2 81 47 be 1e 29 46 bd 8e cf d3 3e
       -0.19299588 -0.19483045 -0.048379056 0.4136929
000100 3c 22 68 3c 9e 96 84 be d5 83 9e be ea d9 93 be
       0.014168318 -0.25896162 -0.30959955 -0.28877193
000110 30 a7 36 3b ac 63 2d 3d c1 89 58 3e 34 d9 a5 3e
       0.0027870648 0.042331383 0.21146299 0.32392275
000120 1a 28 52 bc a0 6b 24 bc 98 9b 65 be 92 f3 af 3e
       -0.012826944 -0.010035425 -0.22422636 0.34365517
000130 fa 60 8b 3c da ee 47 3d 2f 73 5d be 18 12 6d be
       0.017014015 0.04881177 -0.2162597 -0.23151433
000140 e6 a6 37 bd 62 b8 3d 3e 07 7e 90 be 88 0c ad be
       -0.0448369 0.18527368 -0.2822115 -0.33798623
000150 82 a1 3d bc 4a 64 85 3e 69 63 79 3e 96 0a a1 3d
       -0.011574151 0.26053077 0.24354328 0.07863347
000160 8c e2 23 3e 33 cd 4e be a0 f4 d8 3c 6a 9d 4d be
       0.1600439 -0.20195465 0.026483834 -0.2007958
000170 e7 0d 64 3c cb 48 44 3e d1 23 b6 be c0 44 da be
       0.01391933 0.19168393 -0.355742 -0.42630577
000180 0e 42 08 bd 79 5a bd 3b 14 6f 3e 3d 23 a5 99 be
       -0.03326612 0.0057786074 0.04649265 -0.30008802
000190 c4 98 a6 be f7 fb 83 be b9 92 2a 3e b9 e6 af be
       -0.32538426 -0.2577817 0.16657533 -0.34355715
0001a0 7b ca fc bd 9f b8 a3 be 74 2a 2f 3f be 54 07 3f
       -0.123433076 -0.31976792 0.68424153 0.5286368
0001b0 d4 e6 25 3e 96 40 3f be ae 3d cb 3c 9d ca a2 3b
       0.16201335 -0.18676981 0.024809685 0.004968001
0001c0 29 02 61 3e 52 96 a9 be 2a 88 a5 be 81 72 93 3e
       0.2197348 -0.33122498 -0.32330447 0.28798297
0001d0 34 98 71 3e 44 6a 9b be 6c c5 a6 3c 84 3e b6 3e
       0.23593217 -0.30354512 0.02035781 0.3559457
0001e0 0c 59 20 3e 07 8f 26 3e a0 9c 9b be 77 6b 66 3e
       0.15658969 0.16265498 -0.30392933 0.22501932
0001f0 5d e0 23 3d 4f 06 1e 3e a0 6a a6 be 62 c5 3a bc
       0.04000889 0.15432094 -0.32503223 -0.011399599
000200 12 c2 bb be ab f8 ef 3e 86 3f 99 3e af f6 09 bd
       -0.366715 0.46869406 0.29931277 -0.03368252
000210 a9 b9 08 be 8f fc 8e be 43 b7 96 be b0 4c c7 3c
       -0.13352074 -0.27927062 -0.29436693 0.02432856
000220 17 ac 1b 3e af 73 a6 3d 2a 0e 21 b6 ee c5 5d 3e
       0.15202366 0.08127534 -2.3999114e-06 0.21657535
000230 7b c9 7e be 64 6f 1c 3c 03 c9 a8 3e a2 52 51 3e
       -0.24881546 0.009548042 0.3296586 0.20441678
000240 48 df b9 be 7a 88 9e be 13 6c 9b be 38 db 90 3e
       -0.36303163 -0.30963498 -0.30355892 0.2829225
000250 89 67 7a be f5 fd 91 be 3b 40 44 3e 06 7c a6 bd
       -0.24453558 -0.28514066 0.19165127 -0.08129124
000260 14 f7 ff bb 21 a4 5a be 33 dd 18 bd c9 b9 ce 3d
       -0.0078114364 -0.21351673 -0.037320327 0.100940295
000270 2e ee 82 be f9 40 46 be 24 ec 88 be ab 54 ba be
       -0.25572342 -0.19360723 -0.2674266 -0.36392722
000280 d6 72 8f be 2c a6 f1 3c bf 2c 5a be ea c1 9b 3e
       -0.280173 0.029498182 -0.21306132 0.30421382
000290 6c 5d f3 3d fd b3 76 3e 14 09 a6 3e e6 2c 78 3e
       0.11883053 0.24092098 0.324288 0.24235877
0002a0 51 67 aa bb 47 9f a1 bc 97 ab f4 3e 63 1b 4b 3e
       -0.0052003046 -0.01972927 0.47787163 0.19834666
0002b0 bd b9 88 be 94 93 3a be db 76 5c be e5 fd 82 be
       -0.26704207 -0.18220359 -0.21529715 -0.2558433
0002c0 4a 64 92 3b b1 ae 95 be 21 4b 2d bd a6 75 7e 3e
       0.004467522 -0.2923484 -0.042307977 0.24849567
0002d0 c1 42 3e 3d 5b 85 3a bd 6b 20 98 be 9b 1d 84 3e
       0.04645038 -0.045537334 -0.29712233 0.25803837
0002e0 87 08 b1 3e 06 db bd 3b 64 51 d7 3e 88 81 c3 3e
       0.34576818 0.005793932 0.42054284 0.38184762
0002f0 45 7d 8f 3c 8f 32 a5 3e 4f 47 36 3d a4 18 57 be
       0.017515788 0.32265136 0.0445016 -0.21005493
000300 38 1e 99 be 6e d0 9e be 74 d7 a3 be 4e fd 3b be
       -0.29905868 -0.31018394 -0.32000315 -0.18358347
000310 2f 5a a9 be cd e6 e9 3c 8f 8f 07 3d 09 dc a5 3c
       -0.33076617 0.028552437 0.033095893 0.020246523
000320 83 5d 83 be 7b f2 2c 3c ba 1d 97 3c 08 63 fb bc
       -0.2565728 0.010555859 0.018446792 -0.03068687
000330 70 5c df ba 7c 69 88 bb a2 54 72 be 3f 37 81 be
       -0.0017041098 -0.0041629653 -0.23665097 -0.25237462
000340 06 a3 1b bd ba 57 48 3f 9a c5 df bc c8 38 f6 be
       -0.03799727 0.7825886 -0.027315903 -0.48090196
000350 77 d8 7b 3e c6 6a b9 3e 4e 9e 49 be 41 77 b1 be
       0.24594294 0.36214274 -0.19689295 -0.34661296
000360 fd 12 02 3f 29 8f 42 3e 9d 5e 7b 3e 96 ab 98 be
       0.50810224 0.18999924 0.24547811 -0.2981841
000370 d1 68 3a 3e 07 c9 57 3e 1b 5d 68 be 9c ae 0a 3b
       0.18204047 0.2107278 -0.22691767 0.0021161204
000380 0a b9 98 ba ce cc 82 be f7 c5 92 be 9d 78 d3 3e
       -0.0011651826 -0.2554688 -0.2866666 0.41302958
000390 df 5f 44 be d3 f6 34 3e 1e 1b 96 be 41 c5 a6 be
       -0.19177197 0.17672281 -0.29317564 -0.32572368
0003a0 c5 b4 67 3a 4b a2 06 3c ab 74 6e 3e 1c d0 2a 3d
       0.00088388874 0.008217405 0.23286693 0.041702375
0003b0 ab f7 e3 3c fe a3 ba 3e f9 bc cf be 7e a5 8e be
       0.027828058 0.3645324 -0.40573862 -0.27860636
0003c0 ac 44 58 be 25 88 73 3e 73 0c 75 be ba 83 e0 3e
       -0.21119946 0.23782404 -0.2393053 0.438505
0003d0 3c 93 40 3f 2e 2b 48 3e d2 8e c5 3e ab 96 83 3e
       0.7522466 0.19547722 0.38585526 0.25700888
0003e0 36 80 5b be 9a 19 6d 3e f0 6c ee bd 2e 24 a7 be
       -0.21435627 0.23154297 -0.11641872 -0.3264479
0003f0 11 61 ab 3e 48 d8 61 3d b0 3d c7 bd b7 3d 9c be
       0.33472493 0.055137902 -0.09728563 -0.30515835

bias f4 [4]
000000 47 0d 29 3c 04 67 df bc 41 19 7b 3c f3 8c 74 3d
       0.010318107 -0.027270801 0.015325845 0.059704732
